qwen_classifiers/Time_aware_qwen3_4b/filtered_model.pth (torch, 22170 bytes, 1 tensors)

score.weight f4 [2, 2560]
0.039964486 0.03466401 0.017819913 -0.044827197 0.010145447 -0.024006652 -0.0015498674 -0.030800326
-0.01429389 0.036361948 -0.014922762 -0.023738684 -0.012251326 -0.010331426 -0.013715067 0.01630177
0.025509724 0.0037974946 -0.011606929 0.010097734 -0.023064835 0.028050397 0.019450668 0.027452322
0.023620313 0.02792245 0.011778769 0.023591092 -0.011549918 0.003584938 -0.007129744 0.02551258
-0.025758686 -0.026445378 -0.005477566 0.042037986 0.009803211 -0.022319706 0.004826996 -0.011985356
-0.020456325 0.020526042 -0.026009457 -0.014867441 -0.025523392 0.043756258 -0.024600795 -0.016776433
-0.020552514 -0.016869582 0.0037977302 0.012466802 -0.007963786 0.022023875 -0.012077248 -0.030240318
-0.019865116 -0.0009070137 -0.008705283 0.0139524685 -0.0022280347 0.039275132 -0.019070148 0.028711986
0.024818055 0.021650964 0.05053211 0.008414392 0.008321031 -0.009860939 -0.017154384 0.021472227
-0.0016854792 0.016766064 0.005095094 0.0100454185 0.016687127 -0.00851447 -0.047417507 -0.009475475
-0.004348073 -0.011270946 -0.023449369 -0.015088858 0.0014250005 0.009029967 0.015798602 -0.00052602956
0.016218243 -0.0070404094 -0.023079647 0.0045806314 -0.044763688 -0.016486833 0.027197555 0.018446809
-0.063185774 0.00418523 0.020231096 0.0023186791 0.020669116 0.0045392043 0.036959767 -0.008077942
-0.0035806932 0.01615232 0.0034686152 0.005194487 0.004846891 0.024992917 -0.0017776517 -0.0060378932
-0.025301548 -0.0027726246 -0.01290349 0.017854258 0.013552481 0.0015387216 -0.008099271 0.008760044
0.007161275 0.005172444 -0.0066465084 0.010730038 0.022295687 0.0047718068 0.01456209 0.005885415
0.057307053 0.021657133 -0.02699751 -0.021936364 -0.0010259646 0.033802956 0.01103563 0.020432353
0.027144397 -0.0051045073 -0.04101468 0.02164301 -0.00010932077 0.044504575 -0.013993821 0.038493615
-0.016578816 0.0011243331 0.010586769 0.03798368 0.022639267 -0.004160416 -0.007793968 -0.0029580449
0.011659687 0.019121168 -0.006862002 0.028971665 -0.0475805 -0.011535966 -0.021991858 0.016355319
-0.041564412 0.0012506624 0.0014649342 -0.0062040286 -0.0027513583 -0.0036186536 -0.0040978687 -0.019866258
-0.042119637 0.026088288 0.002212046 0.011500363 -0.023948034 0.008414585 0.01579476 0.03883164
0.008532004 0.005409356 -0.012098656 -0.005097326 -0.02329582 -0.030836714 -0.012781174 -0.01514382
-0.011952213 -0.026553832 -0.041563552 -0.0011049763 0.018461205 0.012164883 0.013542166 0.014644843
0.049209375 -0.0104012 0.0125181135 -0.018050388 -0.023383658 0.008800281 0.006939218 0.01591921
0.010044365 0.04275108 -0.011259751 -0.016472798 -0.0034072045 0.022770384 0.024470394 0.011294904
-0.018743752 -0.018332567 -0.008071612 -0.0100619905 0.0014816242 0.008412475 -0.016714597 -0.05095607
-0.00724303 0.013009781 -0.040410608 0.029641142 0.019049477 -0.010205404 0.01794178 0.029755767
0.00074370566 0.03608194 -0.0017924858 -0.018925395 -0.017339097 0.005639368 0.009691274 0.037483715
0.00024154455 -0.018289097 -0.0428212 -0.023380324 0.0010026026 0.0053449306 0.0037715714 0.006096776
-0.025016276 0.0031742614 -0.012927307 0.0073955525 -0.020387199 -0.0036152515 0.0008119853 0.025775054
0.026764238 -0.017850945 0.011416158 0.008382213 0.018070843 0.010859638 0.002915748 0.0075101256
00000000: cdb1 233d d9fb 0d3d 11fb 913c b99c 37bd
00000010: 1739 263c 99a9 c4bc ec24 cbba f750 fcbc
00000020: ec30 6abc 44f0 143d 9a7e 74bc a177 c2bc
00000030: c9b9 48bc 2445 29bc 29b5 60bc 4a8b 853c
00000040: c5f9 d03c 63df 783b fd2a 3ebc f770 253c
00000050: 77f2 bcbc f2c9 e53c 0257 9f3c b1e3 e03c
00000060: 637f c13c 9fbd e43c bdfb 403c 1b42 c13c
00000070: de3b 3dbc 47f1 6a3b a1a0 e9bb c2ff d03c
00000080: e103 d3bc faa3 d8bc 277d b3bb 0630 2c3d
00000090: a69d 203c d1d7 b6bc c72b 9e3b 3a5e 44bc
000000a0: 0694 a7bc 3b26 a83c c911 d5bc 9196 73bc
000000b0: 6f16 d1bc c339 333d 9b87 c9bc bb6e 89bc
000000c0: bf5d a8bc 1432 8abc 57e3 783b 8f41 4c3c
000000d0: 8a7a 02bc 6a6b b43c a6df 45bc 8bba f7bc
000000e0: 2bbc a2bc a9c4 6dba 9aa0 0ebc e598 643c
000000f0: 3804 12bb f6de 203d 0039 9cbc 6635 eb3c
00000100: 3c4f cb3c 5d5d b13c c2fa 4e3d 85dc 093c
00000110: ef54 083c c78f 21bc 5a87 8cbc 86e6 af3c
00000120: 4ceb dcba fc58 893c bff4 a63b 8a95 243c
00000130: 71b3 883c 4780 0bbc dc38 42bd 063f 1bbc
00000140: 487a 8ebb c6a9 38bc e418 c0bc 4237 77bc
00000150: 15c7 ba3a 6df2 133c 126c 813c 3fe5 09ba
00000160: 1fdc 843c 3cb3 e6bb 8711 bdbc 1f19 963b
00000170: 215a 37bd 650f 87bc 68cd de3c c31d 973c
00000180: 8b67 81bd 4124 893b afbb a53c fbf4 173b
00000190: 4752 a93c 9bbd 943b 2063 173d 5859 04bc
000001a0: 10aa 6abb df51 843c b551 633b 8436 aa3b
000001b0: abd2 9e3b f2bd cc3c 1800 e9ba 85d9 c5bb
000001c0: 3145 cfbc ecb4 35bb 2969 53bc 1843 923c
000001d0: 3a0b 5e3c eeae c93a ceb2 04bc 4a86 0f3c
000001e0: 21a9 ea3b 9b7d a93b f4ca d9bb 0bcd 2f3c
000001f0: 72a5 b63c d15c 9c3b d595 6e3c 70da c03b
00000200: cdba 6a3d 4d6a b13c e229 ddbc e4b3 b3bc
00000210: a979 86ba f874 0a3d c9ce 343c c061 a73c
00000220: ed5d de3c b643 a7bb 02ff 27bd af4c b13c
00000230: 2443 e5b8 6e4a 363d 5746 65bc 7bab 1d3d
00000240: 4cd0 87bc 5c5e 933a 2174 2d3c c694 1b3d
00000250: fc75 b93c 1954 88bb 8b64 ffbb c2db 41bb
00000260: 4608 3f3c ffa3 9c3c a5da e0bb fc55 ed3c
00000270: c5e3 42bd 5901 3dbc 4528 b4bc 97fb 853c
00000280: 723f 2abd 44ed a33a 0903 c03a 2a4b cbbb
00000290: 2250 34bb ef26 6dbb 6a47 86bb 90be a2bc
000002a0: a485 2cbd 1bb7 d53c f9f7 103b 056c 3c3c
000002b0: ab2e c4bc 54dd 093c 0364 813c ed0d 1f3d
000002c0: d2c9 0b3c f840 b13b 7139 46bc 7807 a7bb
000002d0: e0d6 bebc 479d fcbc 2168 51bc c91d 78bc
000002e0: 37d3 43bc 6c87 d9bc 8b3e 2abd dad4 90ba
000002f0: f43b 973c 384f 473c f6df 5d3c ecf0 6f3c
00000300: c58f 493d cb69 2abc c618 4d3c 68de 93bc
00000310: 168f bfbc 0e2f 103c 6162 e33b 0169 823c
00000320: 1f91 243c c21b 2f3d d27a 38bc f6f1 86bc
00000330: 684b 5fbb f588 ba3c 2376 c83c 430e 393c
00000340: 7f8c 99bc 2e2e 96bc cb3e 04bc 0cdb 24bc
00000350: 0f33 c23a 7ad4 093c 0ded 88bc 50b7 50bd
00000360: f056 edbb fa26 553c 9885 25bd fbd1 f23c
00000370: a60d 9c3c 9134 27bc a4fa 923c 5ec2 f33c
00000380: 3ef5 423a a8ca 133d d8f1 eaba 6e09 9bbc
00000390: b90a 8ebc 73ca b83b 26c8 1e3c 8688 193d
000003a0: 1f47 7d39 04d3 95bc 4865 2fbd 1888 bfbc
000003b0: c369 833a 8724 af3b 782c 773b 77c7 c73b
000003c0: efee ccbc 4507 503b 0ecd 53bc 6456 f23b
000003d0: 0e03 a7bc dbed 6cbb 69db 543a 3526 d33c
000003e0: ad40 db3c 253c 92bc d60a 3b3c 8d55 093c
000003f0: 4e09 943c a0ec 313c 2216 3f3b 8017 f63b
