qwen_classifiers/Intent_aware_qwen3_4b/filtered_model.pth (torch, 22170 bytes, 1 tensors)

score.weight f4 [2, 2560]
0.041998055 0.030920487 0.01875074 -0.04351046 0.008409178 -0.027487747 0.0062207608 -0.029952385
-0.01623511 0.034099627 -0.008196565 -0.025529996 -0.013621009 -0.010393992 -0.014484735 0.012822137
0.026886623 -0.0038903537 -0.010805361 0.013351877 -0.015573268 0.012797274 0.017078798 0.034358084
0.024850776 0.027476886 0.012927562 0.024081493 -0.004713325 0.00080287515 -0.004689016 0.022971401
-0.025958385 -0.015268133 -0.007549393 0.042836487 -0.010381383 -0.005010379 0.007614769 -0.012279493
-0.03463805 0.017851546 -0.010239383 -0.012082962 -0.02481548 0.0453487 -0.02518831 -0.007513332
-0.012057642 -0.013159229 0.0029318521 0.009604341 -0.0105226105 0.022858659 -0.015175556 -0.018919412
-0.028096406 -0.0007008428 -0.0040280866 0.014019383 0.0011975872 0.03826454 -0.016296858 0.035277437
0.03048605 0.014068925 0.037407503 0.009519086 0.011485406 0.003520315 -0.0155686475 0.023531107
-0.0051088235 0.011278896 0.0037915031 0.019115632 0.015871517 -0.0177583 -0.04171379 -0.02344795
-0.0069306875 -0.0047975387 -0.030149093 -0.010087204 0.012240129 0.011914289 0.020525388 -0.0012430353
0.014905022 -0.006060741 -0.016236357 0.017654669 -0.04678253 -0.016725672 0.03396535 0.010923689
-0.059016332 0.018329175 0.01762798 0.004496215 0.009852036 0.011669026 0.010563917 -0.011137668
-0.003564625 0.023959337 0.013377245 0.0035058744 0.004423647 0.023871604 0.0020762023 0.0009099548
-0.027207177 -0.005586904 -0.020362534 0.024495509 0.013990312 0.0026153668 0.00647234 0.009459921
0.006755443 0.0062960545 0.00082021067 0.012714758 0.021740878 0.0044099446 0.015747385 0.008834054
0.037916005 0.020998953 -0.027880443 -0.022776064 -0.0030043705 0.034138728 0.013561317 0.025766112
0.023692606 -0.009527067 -0.03545622 0.017909361 -0.015132796 0.0256925 -0.013211608 -0.0027863244
-0.022084853 0.0064426707 0.037020247 0.034156665 0.021572037 -0.005233916 -0.011309026 -0.00093803497
0.0074370145 0.018169366 -0.005512197 0.030091196 -0.050388705 -0.008931533 -0.018329421 0.016235638
-0.04199118 0.006163448 -2.2825563e-05 -0.006247467 0.0014101589 -0.014191135 0.0043597682 -0.024189424
-0.02730003 0.026598513 0.013001823 -0.0017590385 -0.026080165 0.0050577954 0.016762123 0.038685374
0.008381489 -0.0030335395 -0.013913648 -0.004369995 -0.017897306 -0.041449755 -0.022746421 -0.008989682
-0.011340679 -0.027268039 -0.039429616 -0.0032974028 0.027045319 -0.008055955 0.01027067 0.01601455
0.030760664 -0.024622668 0.021524554 -0.0071906676 -0.018461904 0.0041691735 0.008928681 0.02440034
0.006298751 0.042796638 -0.0048615714 -0.019798163 0.0024668404 0.025228798 0.024457335 0.012135798
-0.016610635 -0.016361706 -0.0075950194 -0.007121803 0.020383246 0.0067513036 -0.003335623 -0.04405605
-0.0069345254 0.023756973 -0.04156841 0.0248289 0.0008523095 -0.010363892 0.018587105 0.031939186
0.0004708176 0.03633169 0.0034199064 -0.015471085 -0.0179558 0.0022047122 0.00960819 0.041892834
-0.0036951054 -0.01706132 -0.040909514 -0.022173103 0.0036679602 0.0022758187 0.0030424842 0.004773486
-0.008673714 0.0032154454 -0.009238336 0.009114729 -0.010504458 0.0012793572 -0.024957553 0.037127055
0.02880671 -0.017763589 0.018405331 0.010017278 0.016840756 0.009463256 0.007586465 -0.005180793
00000000: 2706 2c3d f64c fd3c 279b 993c 0638 32bd
00000010: a6c6 093c fc2d e1bc 86d7 cb3b b45e f5bc
00000020: 7eff 84bc 0dac 0b3d e34a 06bc 4824 d1bc
00000030: a72a 5fbc 904b 2abc 6251 6dbc f113 523c
00000040: 5641 dc3c 4ef5 7ebb f808 31bc d5c1 5a3c
00000050: 0527 7fbc a8ab 513c d6e8 8b3c 10bb 0c3d
00000060: db93 cb3c 3517 e13c 20ce 533c 8d46 c53c
00000070: 3c72 9abb 0a78 523a 51a6 99bb 852e bc3c
00000080: aea6 d4bc 3127 7abc e660 f7bb 5075 2f3d
00000090: ad16 2abc 1b2e a4bb 5085 f93b ed2f 49bc
000000a0: a1e0 0dbd 683d 923c 16c3 27bc 9ef7 45bc
000000b0: d549 cbbc 8fbf 393d b757 cebc 6632 f6bb
000000c0: 6b8d 45bc cf99 57bc 5124 403b 875b 1d3c
000000d0: 0767 2cbc 1542 bb3c e5a2 78bc e2fc 9abc
000000e0: 6f2a e6bc c4b8 37ba 0afe 83bb 8eb1 653c
000000f0: 5cf8 9c3a 47bb 1c3d fd80 85bc 137f 103d
00000100: e1bd f93c 5981 663c 9c38 193d f1f5 1b3c
00000110: 492d 3c3c 16b5 663b a413 7fbc 4fc4 c03c
00000120: eb67 a7bb 1ecb 383c de7a 783b 6398 9c3c
00000130: fc04 823c db79 91bc 14dc 2abd ea15 c0bc
00000140: d21a e3bb ac34 9dbb 3bfb f6bc cd44 25bc
00000150: d28a 483c 2634 433c dc24 a83c 58ed a2ba
00000160: 3234 743c 2e99 c6bb 1c02 85bc 86a0 903c
00000170: 0a9f 3fbd 4704 89bc 401f 0b3d 46f9 323c
00000180: 1cbb 71bd 1127 963c 8e68 903c fc54 933b
00000190: 6f6a 213c 712f 3f3c 4814 2d3c c47a 36bc
000001a0: 7c9c 69bb 5f46 c43c 3b2c 5b3c d0c2 653b
000001b0: 3ef4 903b 628e c33c e510 083b 088a 6e3a
000001c0: 96e1 debc 5912 b7bb 54cf a6bc ceaa c83c
000001d0: 9f37 653c 9366 2b3b ec15 d43b c9fd 1a3c
000001e0: c35c dd3b 224f ce3b 6803 573a 8f51 503c
000001f0: ed19 b23c 4c81 903b a900 813c b5bc 103c
00000200: d04d 1b3d ff05 ac3c 8765 e4bc de94 babc
00000210: f9e4 44bb 0dd5 0b3d 4930 5e3c 7413 d33c
00000220: ff16 c23c 6a17 1cbc 8b3a 11bd a7b6 923c
00000230: 8cef 77bc 1479 d23c 8075 58bc c49a 36bb
00000240: 4beb b4bc 0a1d d33b 8ba2 173d dce7 0b3d
00000250: d7b7 b03c 4581 abbb 7e49 39bc 76e6 75ba
00000260: 33b2 f33b ecd7 943c a99f b4bb d081 f63c
00000270: 6364 4ebd 9155 12bc 9527 96bc 9a00 853c
00000280: f2fe 2bbd c0f6 c93b 8679 bfb7 8db7 ccbb
00000290: 15d5 b83a ef81 68bc 63dc 8e3b e628 c6bc
000002a0: 50a4 dfbc 20e5 d93c 9905 553c 8a8f e6ba
000002b0: 12a6 d5bc ddbb a53b b850 893c 8e74 1e3d
000002c0: 8352 093c 59ce 46bb 12f6 63bc 2d32 8fbb
000002d0: 5f9d 92bc 38c7 29bd b456 babc 7649 13bc
000002e0: 41ce 39bc 3961 dfbc f380 21bd 3d19 58bb
000002f0: 258e dd3c 20fd 03bc 5046 283c f230 833c
00000300: cafd fb3c 7ab5 c9bc 4354 b03c b19f ebbb
00000310: 6b3d 97bc 909d 883b 9a49 123c 39e3 c73c
00000320: c165 ce3b 874b 2f3d d14d 9fbb c22f a2bc
00000330: b7aa 213b a0ac ce3c c05a c83c 3ad5 463c
00000340: 0713 88bc fc08 86bc a4df f8bb 035e e9bb
00000350: c4fa a63c 0a3a dd3b 789a 5abb 1e74 34bd
00000360: 043b e3bb fc9d c23c a343 2abd fa65 cb3c
00000370: 866d 5f3a 50cd 29bc fc43 983c aad2 023d
00000380: 12d8 f639 8ad0 143d 8220 603b 6f7a 7dbc
00000390: 0b18 93bc ef7c 103b ab6b 1d3c d297 2b3d
000003a0: 9529 72bb 2ec4 8bbc bc90 27bd 5ea4 b5bc
000003b0: 2962 703b e725 153b 6a64 473b e76a 9c3b
000003c0: 311c 0ebc 39ba 523b 645c 17bc f255 153c
000003d0: e41a 2cbc 1bb0 a73a c873 ccbc 8a12 183d
000003e0: 0dfc eb3c f284 91bc c7c6 963c 821f 243c
000003f0: a0f5 893c c60b 1b3c e297 f83b a4c3 a9bb
