qwen_classifiers/Intent_aware_qwen3_4b/model-00001-of-00004.safetensors (safetensors, 12288 bytes, 1 tensors)

model.embed_tokens.weight f4 [151936, 2560]
00000000: 0000 ebbc 0000 403c 0000 2b3c 0000 93bd
00000010: 0000 11bd 0000 223b 0000 67bd 0000 0b3c
00000020: 0000 863b 0000 dbbb 0000 3bbc 0000 f9bb
00000030: 0000 403d 0000 a73c 0000 f23b 0000 26bd
00000040: 0000 07bc 0000 ab3c 0000 9fbb 0000 7ebc
00000050: 0000 7ebd 0000 0f3d 0000 993c 0000 49bc
00000060: 0000 efbb 0000 b83c 0000 273d 0000 ecba
00000070: 0000 363c 0000 b7bc 0000 733c 0000 e83a
00000080: 0000 b53c 0000 7a3c 0000 9abc 0000 083d
00000090: 0000 f5bc 0000 0f3d 0000 853c 0000 c53c
000000a0: 0000 483c 0000 bfbc 0000 173b 0000 873c
000000b0: 0000 983c 0000 16bc 0000 323d 0000 253b
000000c0: 0000 053c 0000 ba3b 0000 ecbb 0000 21bc
000000d0: 0000 bf3c 0000 84bc 0000 38bd 0000 903b
000000e0: 0000 be3b 0000 2fbd 0000 a33b 0000 d73c
000000f0: 0000 ddbc 0000 8dbc 0000 f3bc 0000 ba3c
00000100: 0000 153c 0000 02bd 0000 173c 0000 b6bc
00000110: 0000 9a3d 0000 81bc 0000 c73c 0000 323b
00000120: 0000 47bd 0000 ae3c 0000 2c3c 0000 fdbc
00000130: 0000 7b3b 0000 ebbc 0000 8fb9 0000 9fbc
00000140: 0000 0bbb 0000 b83c 0000 a73c 0000 86bc
00000150: 0000 76bc 0000 323d 0000 75bc 0000 1ebc
00000160: 0000 b3bb 0000 4cbc 0000 813c 0000 303c
00000170: 0000 50bd 0000 c0bc 0000 cebc 0000 14bd
00000180: 0000 783b 0000 de3c 0000 27bc 0000 f8bc
00000190: 0000 fdbc 0000 c2bb 0000 2a3c 0000 123d
000001a0: 0000 c9ba 0000 c7bc 0000 08bd 0000 543c
000001b0: 0000 46bd 0000 4ebb 0000 333d 0000 6bbc
000001c0: 0000 aabc 0000 69bb 0000 9c3b 0000 443a
000001d0: 0000 d23b 0000 3e3d 0000 98bc 0000 e6bc
000001e0: 0000 333d 0000 113c 0000 0bbd 0000 373c
000001f0: 0000 68bc 0000 c9bb 0000 3dbc 0000 8a3c
00000200: 0000 373c 0000 b1bc 0000 fdbb 0000 0fbc
00000210: 0000 8bbb 0000 87bd 0000 43bc 0000 6c3c
00000220: 0000 f23b 0000 5ebd 0000 a5bc 0000 5f3c
00000230: 0000 80bc 0000 2b3b 0000 65bc 0000 463c
00000240: 0000 e73c 0000 dbbb 0000 203d 0000 f73b
00000250: 0000 533c 0000 f3bc 0000 c83c 0000 9f3b
00000260: 0000 81bc 0000 d43c 0000 98bc 0000 66bc
00000270: 0000 8fbd 0000 d23c 0000 d33c 0000 a03b
00000280: 0000 de3b 0000 373d 0000 e53c 0000 f73c
00000290: 0000 4a3c 0000 8cbc 0000 e63c 0000 b2bc
000002a0: 0000 0c3b 0000 bebb 0000 12bc 0000 3dbc
000002b0: 0000 253d 0000 e6bc 0000 80bb 0000 a73c
000002c0: 0000 f3bb 0000 4f3c 0000 90bc 0000 0dbb
000002d0: 0000 7d3b 0000 4abb 0000 0abc 0000 42bc
000002e0: 0000 2ebc 0000 26bb 0000 303d 0000 2ebd
000002f0: 0000 1abd 0000 263c 0000 21bc 0000 27bc
00000300: 0000 c3bc 0000 42bc 0000 ddbc 0000 51bb
00000310: 0000 09bd 0000 60bc 0000 22bc 0000 433d
00000320: 0000 a33c 0000 bcbc 0000 af3c 0000 b8bc
00000330: 0000 a23b 0000 c1bc 0000 1d3d 0000 d0bc
00000340: 0000 f6ba 0000 9f3b 0000 393c 0000 00bc
00000350: 0000 4ebc 0000 81bb 0000 bebc 0000 d1bc
00000360: 0000 6b3b 0000 1abd 0000 5cbb 0000 893b
00000370: 0000 a03b 0000 4c3d 0000 0f3d 0000 92bb
00000380: 0000 173a 0000 b43b 0000 edbc 0000 0dbc
00000390: 0000 97bb 0000 0cbd 0000 203b 0000 95bc
000003a0: 0000 e8bb 0000 1f3d 0000 44bd 0000 e53b
000003b0: 0000 05bc 0000 5d3d 0000 12bc 0000 9abc
000003c0: 0000 3a3d 0000 e13c 0000 3d3c 0000 553d
000003d0: 0000 38bd 0000 4ebc 0000 de3c 0000 fbbc
000003e0: 0000 e03c 0000 aabc 0000 a9bc 0000 38bd
000003f0: 0000 17bc 0000 80bb 0000 28bc 0000 c9b8
-0.028686523 0.01171875 0.010437012 -0.071777344 -0.03540039 0.0024719238 -0.056396484 0.008483887
0.0040893555 -0.0066833496 -0.011413574 -0.007598877 0.046875 0.020385742 0.007385254 -0.040527344
-0.008239746 0.020874023 -0.004852295 -0.01550293 -0.06201172 0.03491211 0.018676758 -0.012268066
-0.007293701 0.022460938 0.040771484 -0.0018005371 0.011108398 -0.022338867 0.014831543 0.0017700195
0.022094727 0.015258789 -0.018798828 0.033203125 -0.029907227 0.03491211 0.016235352 0.024047852
0.012207031 -0.02331543 0.0023040771 0.016479492 0.018554688 -0.009155273 0.04345703 0.0025177002
0.008117676 0.0056762695 -0.0072021484 -0.00982666 0.02331543 -0.016113281 -0.044921875 0.0043945312
0.00579834 -0.04272461 0.0049743652 0.026245117 -0.026977539 -0.017211914 -0.029663086 0.022705078
0.009094238 -0.03173828 0.009216309 -0.022216797 0.07519531 -0.01574707 0.024291992 0.0027160645
-0.048583984 0.021240234 0.010498047 -0.030883789 0.003829956 -0.028686523 -0.00027275085 -0.01940918
-0.0021209717 0.022460938 0.020385742 -0.016357422 -0.015014648 0.04345703 -0.014953613 -0.009643555
-0.0054626465 -0.012451172 0.01574707 0.0107421875 -0.05078125 -0.0234375 -0.025146484 -0.036132812
0.0037841797 0.02709961 -0.010192871 -0.030273438 -0.030883789 -0.00592041 0.010375977 0.03564453
-0.0015335083 -0.024291992 -0.033203125 0.012939453 -0.048339844 -0.0031433105 0.043701172 -0.014343262
-0.020751953 -0.0035552979 0.004760742 0.00074768066 0.0064086914 0.04638672 -0.018554688 -0.028076172
0.043701172 0.008850098 -0.033935547 0.011169434 -0.014160156 -0.006134033 -0.0115356445 0.016845703
0.011169434 -0.021606445 -0.0077209473 -0.008728027 -0.0042419434 -0.06591797 -0.0119018555 0.014404297
0.007385254 -0.05419922 -0.020141602 0.01361084 -0.015625 0.002609253 -0.013977051 0.012084961
0.028198242 -0.0066833496 0.0390625 0.007537842 0.012878418 -0.029663086 0.024414062 0.004852295
-0.01574707 0.025878906 -0.018554688 -0.014038086 -0.06982422 0.025634766 0.025756836 0.0048828125
0.0067749023 0.044677734 0.027954102 0.030151367 0.012329102 -0.017089844 0.028076172 -0.021728516
0.0021362305 -0.00579834 -0.008911133 -0.0115356445 0.040283203 -0.028076172 -0.00390625 0.020385742
-0.0074157715 0.012634277 -0.017578125 -0.0021514893 0.0038604736 -0.0030822754 -0.008422852 -0.01184082
-0.010620117 -0.002532959 0.04296875 -0.04248047 -0.037597656 0.010131836 -0.00982666 -0.010192871
-0.023803711 -0.01184082 -0.026977539 -0.003189087 -0.033447266 -0.013671875 -0.009887695 0.047607422
0.019897461 -0.022949219 0.021362305 -0.022460938 0.0049438477 -0.02355957 0.038330078 -0.025390625
-0.001876831 0.004852295 0.011291504 -0.0078125 -0.012573242 -0.0039367676 -0.02319336 -0.025512695
0.0035858154 -0.037597656 -0.0033569336 0.004180908 0.0048828125 0.049804688 0.03491211 -0.0044555664
0.0005760193 0.005493164 -0.028930664 -0.008605957 -0.0046081543 -0.034179688 0.0024414062 -0.018188477
-0.007080078 0.03881836 -0.047851562 0.0069885254 -0.008117676 0.053955078 -0.008911133 -0.018798828
0.045410156 0.02746582 0.0115356445 0.052001953 -0.044921875 -0.012573242 0.02709961 -0.030639648
0.02734375 -0.020751953 -0.020629883 -0.044921875 -0.009216309 -0.00390625 -0.010253906 -9.584427e-05
