qwen_classifiers/Know_aware_qwen3_4b/filtered_model.pth (torch, 22170 bytes, 1 tensors)

score.weight f4 [2, 2560]
0.040727038 0.029260539 0.022439677 -0.04230261 0.012355041 -0.021528622 -0.0005512259 -0.030110054
-0.016639207 0.026958238 -0.015877243 -0.03062306 -0.014211953 -0.010191767 -0.016229039 0.011277024
0.044190876 -0.010535972 -0.011032601 -0.0060521206 -0.020853471 0.035876166 0.015126291 0.03433616
0.025775962 0.026925398 0.012734254 0.020141875 0.009942045 -0.0010603757 -0.004709204 0.029382484
-0.026422717 -0.00450274 -0.0021693993 0.023627063 -0.0072610024 -0.0015521394 0.012076719 -0.015546035
-0.042260334 0.0127166845 -0.0075100893 -0.01536801 -0.024328204 0.04527039 -0.026689585 -0.0043134247
-0.02327461 -0.009020271 0.004501933 0.010115402 -0.008208696 0.023910439 -0.01654167 0.0039858394
-0.03732821 0.005866143 0.0055237296 0.01408529 -0.0041352124 0.03975515 -0.018803054 0.033024553
0.03394865 0.018569348 0.039922353 0.009583485 0.008035962 -0.005577221 -0.015382389 0.027892193
-0.0016719473 0.010377148 -3.3184908e-05 -0.002875605 0.0057693925 -0.014489877 -0.04167645 -0.023843512
-0.0045925514 -0.0025968514 -0.03380575 -0.011114447 0.015840927 0.01724393 0.025988182 -0.0028578602
0.014245295 -0.013059781 -0.012533881 0.005218695 -0.02566152 -0.016516076 0.032307304 0.008365878
-0.035457596 0.014690705 0.014642776 0.0019302204 0.038859025 0.020934489 0.023134861 -0.011524298
-0.00037145888 0.021239964 0.006075923 0.0022695356 0.0064235907 0.024190549 0.0045711654 -0.0034406423
-0.025766153 -0.0029199934 -0.012075791 0.020878538 0.011763324 0.0023989878 -0.0015986989 0.010531633
0.0036142871 0.0028257538 0.016196338 0.014643194 0.022268249 0.009523657 0.014697743 0.012743757
0.057840176 0.0214265 -0.027992662 -0.020701697 -0.0042338306 0.032839842 0.020284455 0.007669288
0.026065314 -0.0066122944 -0.017844643 0.018756034 -0.026371555 0.03915611 -0.012724962 0.007634725
-0.020605069 0.0039654216 0.045184083 0.01551203 -0.010302382 -0.0012012046 -0.025683384 0.0065616933
0.0067806663 0.022124888 -0.011695859 0.032363743 -0.0498353 -0.008901506 -0.034475677 0.019046167
-0.041347362 0.003398999 -0.0024415373 -0.0070040426 0.021175563 -0.020427128 -0.015231587 -0.021380443
-0.038707588 0.03290271 0.034792382 -0.0041942904 -0.03841611 0.016489735 0.019238487 0.041765593
0.007858496 -0.0076287747 -0.015753075 -0.0058862045 -0.026999408 -0.020155033 -0.03327974 -0.010980458
-0.010861854 -0.027968654 -0.0410222 -0.0052294717 0.045271855 -0.0072000073 0.017458256 0.008303486
0.019817883 -0.02058956 0.017743228 0.004760601 -0.025814261 0.003923126 0.0070731337 0.028638765
0.015403174 0.044707146 -0.010802334 -0.01627882 0.0009963311 0.0061285915 0.024633452 0.009416601
-0.015787752 -0.02193545 -0.012767631 -0.016782897 0.0038154204 0.0037763165 -0.001467849 -0.04166402
0.0027670502 0.01695543 -0.0429945 0.02651865 0.01443168 -0.011273987 0.019430961 0.03297032
0.0034006634 0.03429056 0.008384401 -0.018804563 -0.010590404 -0.0040801973 -5.5717792e-05 0.039944597
-0.009245534 -0.020571971 -0.03606483 -0.017864306 0.0001561046 0.009135763 -0.0012759373 0.0062805633
-0.012880052 0.009029783 -0.0071334415 0.006823329 -0.0059046773 0.00869723 0.0018943377 0.03712047
0.025128774 -0.011855629 0.018937334 0.009115136 0.006387741 0.016486451 0.008511145 -0.007421457
00000000: 65d1 263d ccb3 ef3c 6ad3 b73c 8045 2dbd
00000010: cc6c 4a3c cb5c b0bc 2580 10ba 5ca9 f6bc
00000020: f24e 88bc 86d7 dc3c fe10 82bc 36dd fabc
00000030: 40d9 68bc 5efb 26bc c3f2 84bc 44c3 383c
00000040: 7e01 353d 129f 2cbc 15c2 34bc de50 c6bb
00000050: e6d4 aabc e3f2 123d 43d4 773c 13a4 0c3d
00000060: 1c28 d33c a792 dc3c 55a3 503c 9300 a53c
00000070: f6e3 223c 4efc 8aba ab4f 9abb 89b3 f03c
00000080: 7474 d8bc b98b 93bb 7b2c 0ebb 8b8d c13c
00000090: b4ed edbb 2871 cbba 6edd 453c ccb4 7ebc
000000a0: 2c19 2dbd a459 503c 3217 f6bb 1bca 7bbc
000000b0: f14b c7bc 726d 393d 1ea4 dabc a157 8dbb
000000c0: 65aa bebc c2c9 13bc f484 933b 12bb 253c
000000d0: c47d 06bc d3df c33c 6582 87bc a59b 823b
000000e0: 77e5 18bd c638 c03b 6700 b53b fdc5 663c
000000f0: ad80 87bb 4cd6 223d dd08 9abc c144 073d
00000100: bd0d 0b3d bf1e 983c 9f85 233d 0d04 1d3c
00000110: 44a9 033c 1fc1 b6bb 6a06 7cbc 2b7e e43c
00000120: 3e25 dbba ea04 2a3c 0630 0bb8 a574 3cbb
00000130: 2c0d bd3b f366 6dbc edb4 2abd 7853 c3bc
00000140: 1d7d 96bb f02f 2abb e677 0abd 5f19 36bc
00000150: d5c4 813c 2443 8d3c 2be5 d43c f04a 3bbb
00000160: 1965 693c b1f8 55bc e85a 4dbc 9601 ab3b
00000170: 1c38 d2bc b94c 87bc aa54 043d 0911 093c
00000180: fc3b 11bd 48b1 703c 41e8 6f3c 73ff fc3a
00000190: a42a 1f3d ce7e ab3c 5285 bd3c 69d0 3cbc
000001a0: 5ec0 c2b9 6fff ad3c 8918 c73b 7dbc 143b
000001b0: fc7c d23b 422b c63c b7c9 953b 667c 61bb
000001c0: 8a13 d3bc 5c5d 3fbb 8ad9 45bc 7809 ab3c
000001d0: f5ba 403c 5638 1d3b 6f8b d1ba df8c 2c3c
000001e0: addd 6c3b 4830 393b 2fae 843c 02ea 6f3c
000001f0: e76b b63c 1d09 1c3c cdce 703c 31cb 503c
00000200: d2e9 6c3d a186 af3c de50 e5bc 9b96 a9bc
00000210: f2bb 8abb 1283 063d 962b a63c a74e fb3b
00000220: ed86 d53c f2ab d8bb ee2e 92bc 41a6 993c
00000230: 2909 d8bc 2862 203d 5c7c 50bc b72c fa3b
00000240: f6cb a8bc 5ef0 813b f212 393d 2b26 7e3c
00000250: 52cb 28bc bd71 9dba f665 d2bc 7903 d73b
00000260: 5a30 de3b 413f b53c fd9f 3fbc d88f 043d
00000270: 1920 4cbd 9fd7 11bc 5e36 0dbd b506 9c3c
00000280: da5b 29bd bec1 5e3b 3302 20bb 2b82 e5bb
00000290: 6078 ad3c cb56 a7bc e88d 79bc 0a26 afbc
000002a0: d98b 1ebd fec4 063d 7582 0e3d 4270 89bb
000002b0: 365a 1dbd 7b15 873c 089a 9d3c 6612 2b3d
000002c0: ecc0 003c cdfa f9bb 980c 81bc 10e1 c0bb
000002d0: dd2d ddbc 2b1c a5bc 5650 08bd 61e7 33bc
000002e0: ebf5 31bc 851e e5bc e506 28bd fd5b abbb
000002f0: fb6e 393d 0aee ebbb 9e04 8f3c 580b 083c
00000300: 1d59 a23c 70ab a8bc 3f5a 913c d1fe 9b3b
00000310: 6e78 d3bc 918d 803b bfc5 e73b d89b ea3c
00000320: 985d 7c3c d71e 373d 46fc 30bc 295b 85bc
00000330: 5397 823a 5ad2 c83b 18cc c93c 1648 1a3c
00000340: 5155 81bc f9b1 b3bc 532f 51bc 497c 89bc
00000350: 220c 7a3b 147c 773b d764 c0ba e4a7 2abd
00000360: 6657 353b 1de6 8a3c 001b 30bd a43d d93c
00000370: da72 6c3c 87b6 38bc ae2d 9f3c e30b 073d
00000380: aadd 5e3b 4274 0c3d ba5e 093c 070c 9abc
00000390: 6083 2dbc 2db3 85bb 86b2 69b8 f29c 233d
000003a0: 957a 17bc 8d86 a8bc b7b8 13bd 2a58 92bc
000003b0: 02b0 2339 2bae 153c 5a3d a7ba 2fcd cd3b
000003c0: db06 53bc a8f1 133c a5bf e9bb 3b96 df3b
000003d0: 067c c1bb d47e 0e3c 6d4b f83a a20b 183d
000003e0: dcda cd3c 1d3e 42bc 7822 9b3c a757 153c
000003f0: 4150 d13b 980e 873c 5472 0b3c b22f f3bb
