qwen_classifiers/Self_aware_qwen3_4b/filtered_model.pth (torch, 22170 bytes, 1 tensors)

score.weight f4 [2, 2560]
0.04135562 0.030816557 0.017851524 -0.040938817 0.008053365 -0.028165093 0.004133546 -0.029808559
-0.015087749 0.02904531 -0.013948086 -0.020590248 -0.013933088 -0.0100906985 -0.014305628 0.014619332
0.023487685 0.0023294569 -0.011524322 0.007262872 -0.018206542 0.02480362 0.017688498 0.0331108
0.025038555 0.02965516 0.013013308 0.022287576 -0.0051922817 0.0025410296 -0.007157516 0.008447652
-0.026049053 -0.016376179 -0.0032667634 0.02746449 -0.008601827 -0.029212022 0.0063039726 -0.013639853
-0.022276703 0.02431506 -0.017748507 -0.01224824 -0.025156155 0.04299361 -0.025993317 -0.008722092
-0.015499019 -0.013768045 -0.0045301816 0.013490363 -0.010397104 0.023189126 -0.014522579 -0.017110016
-0.020822646 -0.0006377455 -0.0042077755 0.014286915 -0.007377689 0.035408966 -0.020936789 0.030036272
0.027254878 0.019502204 0.044655744 0.009498858 0.007901483 -0.0029499643 -0.024054686 0.025061578
-0.0024617387 0.0045100395 0.0027852454 0.005823783 0.019120445 -0.013173425 -0.03784422 -0.021451194
-0.0031964348 -0.0064017577 -0.020265564 -0.012822075 0.0075338907 0.011051813 0.013694456 -0.0007953833
0.015675899 -0.012807278 -0.028470594 0.017103745 -0.03440847 -0.016953804 0.017236315 0.007970238
-0.05788435 0.01375138 0.022933716 0.0037487927 0.0036970386 0.00874591 0.027612055 -0.008614945
-0.0043455306 0.024042593 0.007851056 0.0029362612 0.006717485 0.025568297 0.00066878746 -0.0073695974
-0.033904336 -0.0027437722 -0.013021695 0.013037942 0.015610584 0.0026944536 -0.0071669426 0.008858596
0.003986507 0.003951479 -0.00053095905 0.031636667 0.019872317 0.007063344 0.015362988 0.008825369
0.038067166 0.02211296 -0.027412308 -0.020013738 -0.0042608995 0.034063622 0.01888005 0.012127045
0.024023626 0.0014516674 -0.042749878 0.021005021 -0.0035299477 0.019594219 -0.0135303615 0.013913766
-0.017413676 0.0106355045 0.024682363 0.020476252 0.01872167 -0.00093021494 -0.016110444 -0.0029901254
0.007249255 0.01891452 -0.0071132514 0.030272579 -0.04829451 -0.011011768 -0.02304131 0.017144904
-0.038232774 0.0035962276 0.0016311792 -0.005359043 0.0039795325 -0.008027326 0.0019137807 -0.02067892
-0.030209443 0.026614062 0.016944192 -0.0031174652 -0.017203538 0.012311895 0.016082024 0.038545348
0.0032992691 0.004654909 -0.0140472315 -0.0042392435 -0.01241529 -0.03088324 -0.014381963 -0.0011801003
-0.009682056 -0.029952355 -0.037463743 0.0015763935 0.015489725 -0.0015044273 0.016403206 0.016318101
0.042092755 -0.020059193 0.023064794 -0.005837721 -0.01914917 0.0055100364 0.007826045 0.028302647
0.009986796 0.043855324 -0.011235693 -0.020097073 -0.0028620583 0.016761018 0.026109729 0.01112133
-0.015269712 -0.024088629 -0.00980865 -0.010739832 0.008481145 0.0066620014 -0.0026960054 -0.049098887
-0.016811183 0.018436776 -0.035089765 0.028748123 0.009701874 -0.008416377 0.019284267 0.030581735
-0.0049062613 0.033745687 0.0011922691 -0.020680044 -0.014614621 0.008415455 0.008229478 0.038098942
-0.003128018 -0.027715055 -0.04177649 -0.030461762 0.002912581 0.0015018451 0.0021914744 0.011033393
-0.022159383 0.0065636323 -0.009233329 0.007779816 -0.022288937 -0.00231975 -0.010476632 0.023135886
0.030300682 -0.021754129 0.0163064 0.012082057 0.014447156 0.014609096 0.008499081 0.007353738
00000000: 8364 293d 0173 fc3c 5c3d 923c 76af 27bd
00000010: 43f2 033c 7bba e6bc b272 873b 1431 f4bc
00000020: 9b32 77bc 6ef0 ed3c 8386 64bc e1ac a8bc
00000030: 9b47 64bc 7553 25bc 2762 6abc ec85 6f3c
00000040: 3f69 c03c cda9 183b 83d0 3cbc 63fd ed3b
00000050: e325 95bc f630 cb3c 78e7 903c 319f 073d
00000060: a81d cd3c 61ef f23c c535 553c 6f94 b63c
00000070: 0424 aabb 6787 263b 9989 eabb 0568 0a3c
00000080: d364 d5bc 5627 86bc 3217 56bb 36fd e03c
00000090: adee 0cbc 0d4e efbc 8e91 ce3b b179 5fbc
000000a0: a27d b6bc 6030 c73c 5165 91bc d8ac 48bc
000000b0: 4814 cebc 111a 303d f0ef d4bc 1be7 0ebc
000000c0: 99ef 7dbc 5e93 61bc eb71 94bb af06 5d3c
000000d0: 9d58 2abc 1ff7 bd3c 1cf0 6dbc 4e2a 8cbc
000000e0: 4194 aabc 602e 27ba 61e1 89bb aa13 6a3c
000000f0: 8ac0 f1bb fe08 113d a183 abbc a10e f63c
00000100: 9f45 df3c 16c3 9f3c f1e8 363d 19a1 1b3c
00000110: 3975 013c 3054 41bb 550e c5bc f04d cd3c
00000120: 1f55 21bb f4c8 933b aa88 363b 6fd5 be3b
00000130: 7ba2 9c3c 59d5 57bc 8a02 1bbd 6aba afbc
00000140: 477b 51bb d6c5 d1bb f803 a6bc ae13 52bc
00000150: dbde f63b aa12 353c b65e 603c 4581 50ba
00000160: be6a 803c 9ed5 51bc 2a3b e9bc 271d 8c3c
00000170: e5ef 0cbd b4e2 8abc 2c33 8d3c 9a95 023c
00000180: 2418 6dbd 784d 613c 7ddf bb3c 4eae 753b
00000190: 044a 723b 014b 0f3c ad32 e23c b325 0dbc
000001a0: f464 8ebb f9f4 c43c b7a1 003c 4a6e 403b
000001b0: 591e dc3b 9b74 d13c 9151 2f3a aa7c f1bb
000001c0: 46df 0abd dcd0 33bb f358 55bc 189d 553c
000001d0: 89c3 7f3c 6e95 303b acd8 eabb a523 113c
000001e0: 3fa1 823b 697b 813b 0f30 0bba 7395 013d
000001f0: 45cb a23c a073 e73b 0bb5 7b3c 4898 103c
00000200: 51ec 1b3d 3d26 b53c c78f e0bc daf3 a3bc
00000210: 049f 8bbb 4c86 0b3d 56aa 9a3c 83b0 463c
00000220: 32cd c43c e045 be3a 7f1a 2fbd b912 ac3c
00000230: b256 67bb 0e84 a03c 73ae 5dbc 90f6 633c
00000240: 20a7 8ebc 8a40 2e3c ab32 ca3c d0bd a73c
00000250: 305e 993c abd9 73ba 0dfa 83bc fbf5 43bb
00000260: 298b ed3b a0f2 9a3c 4716 e9bb 33fe f73c
00000270: 77d0 45bd b46a 34bc 21c1 bcbc 7873 8c3c
00000280: f899 1cbd b0ae 6b3b 4bcd d53a e99a afbb
00000290: bd66 823b 0c85 03bc d3d7 fa3a d766 a9bc
000002a0: cb79 f7bc bc05 da3c 8cce 8a3c 634e 4cbb
000002b0: 6fee 8cbc d5b7 493c 73be 833c bae1 1d3d
000002c0: 8d38 583b 3588 983b 5c26 66bc 5ae9 8abb
000002d0: 8069 4bbc d9fe fcbc 53a2 6bbc 98ad 9aba
000002e0: 7ca1 1ebc a45e f5bc 9573 19bd fd9e ce3a
000002f0: 9ec8 7d3c 3430 c5ba 0460 863c 8aad 853c
00000300: 7469 2c3d 2d53 a4bc 61f2 bc3c 5a4a bfbb
00000310: b8de 9cbc 898d b43b d038 003c f4da e73c
00000320: a99f 233c a4a1 333d e915 38bc 9ea2 a4bc
00000330: 5f91 3bbb 674e 893c 12e4 d53c 3d36 363c
00000340: d02d 7abc 8455 c5bc 76b4 20bc 1ff6 2fbc
00000350: 80f4 0a3c eb4c da3b 77af 30bb ea1b 49bd
00000360: 9bb7 89bc b908 973c 49ba 0fbd 2f81 eb3c
00000370: 9cf4 1e3c d8e4 09bc 0afa 9d3c 8c86 fa3c
00000380: b4c4 a0bb eb38 0a3d ea45 9c3a 3269 a9bc
00000390: 2a72 6fbc fae0 093c efd4 063c a30d 1c3d
000003a0: 6fff 4cbb af0a e3bc d31d 2bbd f28a f9bc
000003b0: 00e1 3e3b 8fd9 c43a d79e 0f3b 68c5 343c
000003c0: 9887 b5bc bd13 d73b 6447 17bc d4ed fe3b
000003d0: 4a97 b6bc f206 18bb 2ea6 2bbc 7887 bd3c
000003e0: 2339 f83c b735 b2bc 0095 853c d2f3 453c
000003f0: c4b3 6c3c fd5a 6f3c bb3f 0b3c a0f7 f03b
